…
  (batch_norm): BatchNorm1d(5, eps=1e-05, momentum=0.1, affine=True, track_running_stats=True)
  (fc): Linear(in_features=5, out_features=1, bias=True)
  (activation): Sigmoid()
)

============================================================================================================================================
Layer (type:depth-idx)                   Input Shape               Output Shape              Param #                   Mult-Adds
============================================================================================================================================
xLSTMModel                               [1, 1440, 5]              [1, 1]                    --                        --
├─xLSTMBlockStack: 1-1                   [1, 1440, 5]              [1, 1440, 5]              --                        --
│    └─ModuleList: 2-1                   --                        --                        --                        --
│    │    └─sLSTMBlock: 3-1              [1, 1440, 5]              [1, 1440, 5]              240                       345,600
│    │    └─sLSTMBlock: 3-2              [1, 1440, 5]              [1, 1440, 5]              240                       345,600
├─BatchNorm1d: 1-2                       [1, 5, 1440]              [1, 5, 1440]              10                        10
├─Linear: 1-3                            [1, 5]                    [1, 1]                    6                         6
├─Sigmoid: 1-4                           [1, 1]                    [1, 1]                    --                        --
============================================================================================================================================
Total params: 496
Trainable params: 496
Non-trainable params: 0
Total mult-adds (M): 0.69
============================================================================================================================================
Input size (MB): 0.03
…
