MAE預測誤差值 : 0.339091
MSE預測誤差值 : 0.153810
RMSE預測誤差值 : 0.392186
MAPE預測誤差值 : 179.654254
MSLE預測誤差值 : 0.097850
R2 Score : -4.851443
=================================================================
Model: "model_1"
_________________________________________________________________
Layer (type)                 Output Shape              Param #   
=================================================================
input_1 (InputLayer)         (None, 1440, 7)           0         
_________________________________________________________________
time_distributed_1 (TimeDist (None, 1440, 10)          80        
_________________________________________________________________
cu_dnnlstm_1 (CuDNNLSTM)     (None, 1440, 60)          17280     
_________________________________________________________________
batch_normalization_1 (Batch (None, 1440, 60)          240       
_________________________________________________________________
cu_dnnlstm_2 (CuDNNLSTM)     (None, 60)                29280     
_________________________________________________________________
batch_normalization_2 (Batch (None, 60)                240       
_________________________________________________________________
dense_2 (Dense)              (None, 1)                 61        
=================================================================
Total params: 47,181
Trainable params: 141
Non-trainable params: 47,040
_________________________________________________________________
